Chapter01/net_params.pkl (torch_old, 886 bytes, 3 tensors)

0.weight f4 [10, 1]
0	0xbf508c01	-0.8146363
1	0x3fa1b15c	1.2632251
2	0xbea166ad	-0.31523648
3	0xbed2a7a0	-0.41143513
4	0x3e4586c4	0.1928969
5	0xbf3306ee	-0.6993245
6	0x3f284384	0.6572802
7	0x3f20718e	0.6267327
8	0xbf343833	-0.70398253
9	0xbf3e3598	-0.7430053

0.bias f4 [10]
0	0xbea3ed67	-0.3201706
1	0xbe5eaa4e	-0.21744654
2	0xbe0beb55	-0.13663991
3	0xbf01cfd6	-0.5070776
4	0xbd008fd1	-0.031387154
5	0xbf709f66	-0.9399322
6	0xbf34ee4a	-0.706761
7	0xbf2a6a9e	-0.66568935
8	0xbd8a54b4	-0.06754437
9	0xbd4592d6	-0.048235737

2.weight f4 [1, 10]
0	0x3f01406a	0.50488913
1	0x3f6231e6	0.8835739
2	0x3e8b9909	0.27265194
3	0x3d1b3218	0.03788957
4	0x3d900250	0.07031691
5	0x3e3ac200	0.18238068
6	0x3e470fbe	0.19439599
7	0xbc9622d0	-0.018327147
8	0x3eee8488	0.46585488
9	0x3f0265f2	0.50936806
